modelNN.pth (torch_old, 249646 bytes, 10 tensors)

conv1.weight f4 [6, 3, 5, 5]
-0.034142762 -0.27239832 0.08081726 0.6840276 -0.1343025 0.22539932 0.051830433 -0.66465694
-0.022782518 0.4265069 0.34200877 0.5697838 -0.27726048 -0.8516233 0.08808685 0.49879873
0.2775307 -0.13830912 -0.65814984 -0.21548608 0.33558235 -0.2863077 -0.24799815 0.014327528
-0.07297872 -0.17159781 -0.39386675 -0.18314369 0.41692352 -0.21604894 0.20484129 0.088463925
-0.6666607 -0.24714346 0.28408396 0.23105547 0.52735174 -0.22194901 -0.9529496 0.24481077
0.17477793 0.27456063 -0.15195736 -0.4877221 -0.20329376 0.2588974 -0.1604142 -0.12005198
0.22281937 0.0636049 -0.040361807 -0.023084821 -0.06505734 0.41368613 -0.29258427 0.15741196
0.09820582 -0.51704043 -0.28391856 0.34419015 0.281711 0.7604074 -0.31380278 -0.7980362
0.06356934 0.3358169 0.5533315 -0.0132352635 -0.5760079 -0.37817734 0.3995534 0.04937828
-0.04145095 0.29161224 0.08546076 0.15925251 0.122738615 -0.12460648 -0.101071514 0.06680119
-0.13759558 -0.1782951 -0.28953817 -0.131935 -0.1240758 -0.16054331 -0.34616774 -0.39028695
-0.40007475 -0.22114098 -0.09780382 -0.32602242 -0.3018911 -0.17139772 0.09581301 0.12531689
-0.25074276 -0.27980834 -0.121060565 0.04929855 -0.1685347 -0.023403125 -0.058999754 -0.09678337
-0.029361937 -0.2166534 0.054436512 0.08008721 0.30063236 0.123056814 -0.2728253 0.09036604
0.0901249 0.20834687 0.04034892 -0.22337046 0.07695235 0.0758229 0.31102052 0.07946813
-0.35972324 -0.091044344 -0.16596206 0.07071494 -0.32033116 -0.030271873 0.27731302 0.400049
0.20126691 -0.17073499 0.17673525 0.48343015 0.6280906 0.47733 0.052048337 0.06608185
0.5357907 0.44911826 0.55668074 -0.20282248 0.09583917 0.58980006 0.4918321 0.46717957
-0.0936805 -0.021415018 0.3724796 0.44156286 0.11944103 -0.5412826 0.10309828 0.050176375
0.12915306 0.034452844 0.008013026 -0.035144985 0.09283781 0.49009696 0.40776587 0.2536726
-0.0027037056 0.2802431 0.5759173 0.4788011 0.08573624 -0.18872297 0.25146854 0.43401507
0.12175788 -0.047046345 -0.25934923 0.07755136 0.17297779 0.05770503 -0.18524338 -0.23500921
-0.4779305 -0.3174823 0.045700874 0.035667546 -0.57741904 -0.6898637 -0.2964239 -0.025219012
0.09301236 -0.7141396 -0.54123485 -0.03077389 0.07986045 -0.08626144 -0.62478036 -0.37185946
-0.0050932313 -0.06710902 0.04301754 -0.36496538 -0.08310662 -0.11115142 -0.19679736 0.008037891
0.16264649 -0.19543967 0.06514719 0.2711865 0.26422682 -0.087466404 -0.2390427 -0.049323298
0.4443905 0.20033671 -0.3171788 -0.13324866 0.17761444 0.23538731 0.17520022 -0.12521917
0.099022545 0.28990468 0.17529787 0.0823844 0.15799545 0.41972584 0.15160081 0.10852482
0.02841548 -0.08528633 0.32599097 -0.4434423 0.49003243 -0.14747581 -0.02427804 0.53456414
-1.4745702 1.2256624 -0.38732544 -0.12950687 0.7776031 -1.7799355 1.1352168 -0.31955793
-0.22568005 0.7318039 -1.1401767 0.6155676 -0.14232491 0.044491846 0.2007944 -0.6112642
0.3488588 -0.0015370598 -0.043433655 0.20663047 -0.7139929 0.52120316 -0.080796435 0.034273952
00000000: 48d9 0bbd cb77 8bbe 8583 a53d 6f1c 2f3f
00000010: 9886 09be 14cf 663e 264c 543d f526 2abf
00000020: 67a2 babc 1d5f da3e c61b af3e 5add 113f
00000030: 16f5 8dbe fc03 5abf e166 b43d 8c62 ff3e
00000040: 8118 8e3e e8a0 0dbe 827c 28bf 62a8 5cbe
00000050: 73d1 ab3e ec96 92be 3af3 7dbe 02be 6a3c
00000060: de75 95bd 56b7 2fbe e7a8 c9be 058a 3bbe
00000070: 0077 d53e ef3b 5dbe eac1 513e 932c b53d
00000080: 47aa 2abf 2d13 7dbe 7473 913e ce99 6c3e
00000090: 8600 073f 9a46 63be 81f4 73bf adaf 7a3e
000000a0: fcf8 323e 3693 8c3e b69a 1bbe b6b6 f9be
000000b0: 3d2c 50be 338e 843e 9f43 24be d0dd f5bd
000000c0: c32a 643e 4943 823d 6c52 25bd 611c bdbc
000000d0: c83c 85bd abce d33e 9bcd 95be 9a30 213e
000000e0: 2220 c93d c35c 04bf c65d 91be b139 b03e
000000f0: 6d3c 903e 0faa 423f c2aa a0be 1a4c 4cbf
00000100: a430 823d 31f0 ab3e 22a7 0d3f b8d8 58bc
00000110: 4175 13bf 76a0 c1be 4392 cc3e e140 4a3d
00000120: 79c8 29bd 334e 953e 0d06 af3d 1713 233e
00000130: 625e fb3d af31 ffbd 95fe cebd 10cf 883d
00000140: dbe5 0cbe fe92 36be 593e 94be f819 07be
00000150: 741b febd 7765 24be e63c b1be b1d3 c7be
00000160: 99d6 ccbe c872 62be 5f4d c8bd 69ec a6be
00000170: 7891 9abe e282 2fbe 9d39 c43d 1253 003e
00000180: 5b61 80be 0a43 8fbe 9aee f7bd 47ed 493d
00000190: 5c94 2cbe e9b7 bfbc baa9 71bd 5c36 c6bd
000001a0: 7288 f0bc 64da 5dbe d2f8 5e3d c304 a43d
000001b0: 7cec 993e 3605 fc3d c2af 8bbe d511 b93d
000001c0: 6793 b83d e258 553e e944 253d 3abb 64be
000001d0: 3299 9d3d 0949 9b3d 153e 9f3e 30c0 a23d
000001e0: a52d b8be 7575 babd f5f1 29be ffd2 903d
000001f0: 7202 a4be b8fc f7bc f9fb 8d3e 39d3 cc3e
00000200: ea18 4e3e 27d5 2ebe 16fa 343e 2884 f73e
00000210: 8cca 203f 9964 f43e a330 553d ec55 873d
00000220: 9429 093f d4f2 e53e a182 0e3f b2b0 4fbe
00000230: 5447 c43d 23fd 163f 6bd1 fb3e 2932 ef3e
00000240: 90db bfbd 8c6e afbc a5b5 be3e 8714 e23e
00000250: 809d f43d 7f91 0abf 3125 d33d be85 4d3d
00000260: b340 043e 6d1e 0d3d 1149 033c 30f4 0fbd
00000270: c021 be3d fded fa3e b0c6 d03e 60e1 813e
00000280: a730 31bb 067c 8f3e 516f 133f 6b25 f53e
00000290: 7b96 af3d 9840 41be 7cc0 803e 3937 de3e
000002a0: 325c f93d abb3 40bd 6cc9 84be 3fd3 9e3d
000002b0: 1721 313e 1c5c 6c3d 71b0 3dbe 41a6 70be
000002c0: 4eb3 f4be 0a8d a2be d730 3b3d 2218 123d
000002d0: bcd1 13bf e89a 30bf e0c4 97be 1a98 cebc
000002e0: 447d be3d dad1 36bf 5e8e 0abf 8619 fcbc
000002f0: e08d a33d d6a9 b0bd 9bf1 1fbf 5d64 bebe
00000300: 1fe5 a6bb 7470 89bd 2933 303d bedc babe
00000310: ce33 aabd 5ba3 e3bd 3f85 49be 5cb1 033c
00000320: cd8c 263e 5621 48be e46b 853d f5d8 8a3e
00000330: bd48 873e 9621 b3bd 9cc7 74be 3a07 4abd
00000340: 2787 e33e 1125 4d3e 4265 a2be 5672 08be
00000350: 8fe0 353e 5f09 713e b067 333e 7439 00be
00000360: 55cc ca3d 636e 943e 4981 333e 27b9 a83d
00000370: 8fc9 213e 4ee6 d63e 3e3d 1b3e 4342 de3d
00000380: 95c7 e83c 99aa aebd 4ae8 a63e df0a e3be
00000390: 88e5 fa3e e603 17be bde2 c6bc 32d9 083f
000003a0: b7be bcbf 81e2 9c3f 854f c6be 739d 04be
000003b0: ff10 473f edd4 e3bf c94e 913f 199d a3be
000003c0: ac18 67be 8057 3b3f 4ff1 91bf d795 1d3f
000003d0: 9fbd 11be 153d 363d 0c9d 4d3e d07b 1cbf
000003e0: 9f9d b23e 2b77 c9ba 7de7 31bd f096 533e
000003f0: 3dc8 36bf 926d 053f 9a78 a5bd d862 0c3d

conv1.bias f4 [6]
-0.32965842 0.4029691 -0.24211213 -0.29836407 0.11675981 -0.7903729
00000000: fdc8 a8be f751 ce3e 3eec 77be 2dc3 98be
00000010: c41f ef3d e155 4abf

conv2.weight f4 [16, 6, 5, 5]
-0.18485706 -0.10966693 -0.03592135 -0.16460647 -0.35103273 0.11632781 -0.08170469 -0.34143192
-0.41217667 -0.4755378 0.18898688 -0.21039808 -0.27715987 -0.5063851 -0.42975524 0.3190571
0.18462013 0.2213466 -0.32902655 -0.3794224 0.38284817 0.19542493 0.23675163 0.039522927
-0.2625294 0.3257176 -0.05559537 -0.18950747 -0.16171892 -0.096704565 0.43328577 0.062050797
-0.016927384 -0.122025594 -0.103616744 0.10881188 -0.018345155 -0.06705386 -0.05773631 -0.19178261
0.074846685 0.019335177 0.12386699 0.07123807 0.0020865707 0.10507534 -0.029221183 0.051417843
-0.08579222 0.026303982 0.23985124 0.06852876 0.062934406 0.12709953 -0.033050094 0.13964042
0.00018315698 0.046218365 -0.079123564 -0.12714669 0.04472645 -0.0075741634 0.14376466 0.006812724
-0.25805652 0.013233692 0.19588077 0.031362806 0.035568148 -0.26184362 -0.004301829 0.31618232
-0.011592208 -0.016399391 -0.38842264 -0.13181801 -0.019152744 0.13065927 -0.100871116 -0.28799608
0.16698721 0.10565587 -0.19928196 -0.19810636 -0.38013223 0.12850675 0.058463197 -0.25206316
-0.073257476 -0.36346135 0.28048602 0.056287307 -0.16914651 -0.1628689 -0.27087125 0.0687516
0.15057735 0.12796083 -0.03870642 -0.30945772 0.17292479 0.06904079 0.021491246 0.045786213
0.11334012 0.23658057 -0.08941987 -0.066476636 -0.07362227 0.07108036 0.18528178 0.014454622
-0.17899275 -0.18342327 0.05183089 0.10266115 -0.009322085 0.0986522 0.018644009 0.021871245
0.004134684 0.22421189 0.14386047 0.1396281 0.0019424612 -0.09733295 -0.16990681 -0.26621178
-0.23663242 -0.17440256 -0.19091195 -0.35227463 -0.3079695 -0.18700369 -0.24973382 -0.100023165
-0.30694154 -0.33993402 -0.2958677 -0.30491677 -0.046706364 -0.4708418 -0.046065345 -0.25688475
-0.24320982 -0.06742241 -0.14771804 -0.30548546 -0.01053111 -0.1765884 0.064911775 0.104383655
-0.17817214 -0.36102918 -0.30847898 -0.11160168 0.033189088 -0.082810804 -0.12235184 -0.33199924
0.11055895 0.091345005 0.050953414 -0.09222629 -0.038668092 0.053973097 0.040331766 0.015515171
-0.009058005 -0.028655682 -0.0023553087 0.0512327 -0.04947069 -0.039496575 -0.23578945 -0.04609084
-0.15512837 -0.190839 -0.028049989 0.12705302 -0.09604546 -0.13754688 -0.29415604 -0.17351039
-0.19371271 -0.06863646 -0.026241595 -0.28223974 -0.3372752 -0.17936268 0.017614214 -0.11517588
-0.22756062 -0.2971556 -0.18258633 -0.09226767 -0.07476544 -0.1418877 -0.14341305 0.020646239
0.0052578393 0.18808344 0.04770465 0.06580951 -0.3143172 0.3011528 0.3935131 0.31793797
0.25773066 0.010083247 0.20869894 0.3102139 0.2780266 0.2282329 0.19338462 0.045961726
0.1654475 0.12789679 0.101309754 -0.027147258 -0.12603796 -0.04175756 0.088055305 0.021372894
-0.02511227 0.2031764 -0.03611817 -0.12968141 -0.08017851 -0.16824275 0.06799597 0.026372764
-0.09670596 -0.25876728 0.07922063 0.040481824 0.03865428 -0.22396523 -0.11527341 -0.091721594
-0.09807937 0.02633717 0.018753463 -0.15146843 -0.042193584 0.07880169 0.21087515 0.26548836
-0.06476421 0.14433822 0.32394108 0.27129117 0.14919652 0.14365385 -0.0047233715 0.028612874
00000000: 2b4b 3dbe 0e99 e0bd 4422 13bd 998e 28be
00000010: 90ba b3be 463d ee3d ca54 a7bd 2ad0 aebe
00000020: d208 d3be b179 f3be c785 413e 9872 57be
00000030: e6e7 8dbe 74a2 01bf e108 dcbe 745b a33e
00000040: 0f0d 3d3e afa8 623e 2b76 a8be a743 c2be
00000050: ad04 c43e 791d 483e 056f 723e cbe2 213d
00000060: 416a 86be 75c4 a63e f8b7 63bd 3f0e 42be
00000070: a599 25be 0b0d c6bd a2d7 dd3e fa28 7e3d
00000080: 4cab 8abc 8ee8 f9bd 0435 d4bd c3d8 de3d
00000090: 9448 96bc 8953 89bd e97c 6cbd a962 44be
000000a0: 3849 993d ce64 9e3c faad fd3d 44e5 913d
000000b0: d9be 083b bd31 d73d 4361 efbc 849b 523d
000000c0: d5b3 afbd 737b d73c 909b 753e ce58 8c3d
000000d0: c1e3 803d 6126 023e 895f 07bd e6fd 0e3e
000000e0: d40d 4039 784f 3d3d 890b a2bd be32 02be
000000f0: 1533 373d b030 f8bb 0b37 133e 453d df3b
00000100: fc1f 84be 21d2 583c f894 483e 4976 003d
00000110: e8af 113d 5e10 86be 5bf6 8cbb a6e2 a13e
00000120: 3fed 3dbc 0458 86bc 55df c6be 4dfb 06be
00000130: 37e6 9cbc 8bcb 053e 8495 cebd 3974 93be
00000140: b2fe 2a3e 1b62 d83d 9210 4cbe 65dc 4abe
00000150: b1a0 c2be 4697 033e 1b77 6f3d 6c0e 81be
00000160: 0408 96bd 9b17 babe dd9b 8f3e 858d 663d
00000170: be34 2dbe 1bc7 26be a3af 8abe a4cd 8c3d
00000180: f330 1a3e 2a08 033e a08a 1ebd 3e71 9ebe
00000190: 3213 313e 4265 8d3d 690e b03c 538a 3b3d
000001a0: dd1e e83d 2d42 723e c421 b7bd e724 88bd
000001b0: 46c7 96bd 9492 913d 82ba 3d3e 14d3 6c3c
000001c0: e049 37be 4fd3 3bbe a14c 543d 0240 d23d
000001d0: a9bb 18bc 2a0a ca3d 52bb 983c 532b b33c
000001e0: 3e7c 873b cd97 653e 2950 133e abfa 0e3e
000001f0: 2f9a fe3a 7f56 c7bd 0dfc 2dbe e94c 88be
00000200: c54f 72be 9696 32be 6c7e 43be 575d b4be
00000210: 2eae 9dbe e57d 3fbe 39ba 7fbe f2d8 ccbd
00000220: 7127 9dbe d50b aebe f97b 97be 0d1e 9cbe
00000230: 2c4f 3fbd 2d12 f1be 04af 3cbd 6686 83be
00000240: ff0b 79be c314 8abd 6643 17be 9768 9cbe
00000250: ad8a 2cbc 97d3 34be 77f0 843d 19c7 d53d
00000260: c272 36be d1d8 b8be f5f0 9dbe 6c8f e4bd
00000270: 48f1 073d b698 a9bd 9a93 fabd cefb a9be
00000280: bb6c e23d 1713 bb3d 87b4 503d 23e1 bcbd
00000290: 6f62 1ebd e512 5d3d ec32 253d 5833 7e3c
000002a0: 0768 14bc 52bf eabc 865b 1abb 61d9 513d
000002b0: c7a1 4abd 29c7 21bd ca72 71be c0c9 3cbd
000002c0: f9d9 1ebe 4c6b 43be 17c9 e5bc 301a 023e
000002d0: 7bb3 c4bd 17d9 0cbe 9f9b 96be b5ac 31be
000002e0: a05c 46be 4691 8cbd 9df8 d6bc ba81 90be
000002f0: 56af acbe daaa 37be af4b 903c 55e1 ebbd
00000300: a705 69be c724 98be e9f7 3abe d5f6 bcbd
00000310: 9f1e 99bd 024b 11be dfda 12be 4d22 a93c
00000320: f449 ac3b f298 403e f365 433d 23c7 863d
00000330: 2fee a0be b330 9a3e 8d7a c93e c4c8 a23e
00000340: 46f5 833e 3434 253c 2db5 553e 5bd4 9e3e
00000350: 8159 8e3e e3b5 693e 9e06 463e 5d42 3c3d
00000360: 126b 293e 60f7 023e 7d7b cf3d ed63 debc
00000370: 1810 01be fa09 2bbd 5756 b43d 3516 af3c
00000380: 3fb8 cdbc 790d 503e a5f0 13bd 34cb 04be
00000390: a134 a4bd d447 2cbe 7941 8b3d b20b d83c
000003a0: c60d c6bd 257d 84be 6d3e a23d 45d0 253d
000003b0: f353 1e3d 2457 65be 7714 ecbd 88d8 bbbd
000003c0: d6dd c8bd 0cc1 d73c dda0 993c 8a1a 1bbe
000003d0: 2ed3 2cbd c862 a13d a8ef 573e 17ee 873e
000003e0: 19a3 84bd 66cd 133e 9bdb a53e ade6 8a3e
000003f0: f9c6 183e ff19 133e 83c6 9abb 8c65 ea3c

conv2.bias f4 [16]
1.7875946 -0.091075525 -2.0402668 -0.82749176 0.055829912 0.5103634 -0.02937156 1.1229396
1.6159438 -0.20837659 0.5603203 0.081331566 1.1975031 -0.11778184 -0.30402634 -0.8599776
00000000: e6cf e43f ce85 babd bb93 02c0 80d6 53bf
00000010: e8ad 643d 2da7 023f a09c f0bc 7cbc 8f3f
00000020: 3fd7 ce3f ac60 55be 2771 0f3f 2a91 a63d
00000030: c847 993f 9b37 f1bd 57a9 9bbe 7e27 5cbf

fc1.weight f4 [120, 400]
0.030338293 -0.021753639 -0.011235581 -0.020343421 -0.0472538 0.05684735 0.043321844 0.056372304
0.011724966 0.008035969 0.04982186 -0.01160812 0.056379844 -0.03333647 -0.1104389 0.034499183
-0.12909189 -0.06575226 -0.06963221 -0.17010169 0.0914852 -0.09624638 0.0006763264 0.15247038
-0.043343905 0.017603025 0.0103050135 -0.021549666 0.08441696 -0.004319827 0.060698573 0.1068004
0.1186241 0.03551347 0.0036873927 0.06390392 0.1202324 0.0895889 0.059746023 0.08804134
0.0351426 0.06596586 0.14464393 0.07919535 0.023930954 -0.045189403 -0.07635139 -0.04041143
-0.11436567 -0.083256826 0.098733135 -0.06544814 -0.065804675 0.17959748 0.031659916 -0.043131094
-0.033273056 -0.05495097 0.024312312 -0.013600659 0.0535443 -0.05737507 0.035272088 0.13769461
0.15901382 0.050254006 0.034984604 0.04058533 -0.042331915 0.17728233 -0.014847916 0.04445317
-0.036396366 -0.13150126 0.045669083 0.09611711 0.0021968705 0.067768335 -0.10293364 -0.13136512
0.040499657 0.034865707 0.0070905513 0.027908577 0.021899287 0.14536081 0.14504859 -0.023304742
-0.15965751 -0.04331092 0.12725025 -0.07117402 0.052602775 0.009471382 -0.15328771 0.009134536
-0.16572961 -0.17026775 -0.23618196 -0.11109048 0.09899879 0.0132194925 0.048598137 0.06811485
0.03183735 -0.070584126 -0.08844935 -0.037456878 -0.051629107 0.09244305 -0.13809246 0.03730175
0.08428737 0.084544405 -0.013470014 0.104723655 0.11569858 0.062335048 0.1046513 0.04690685
-0.051469713 0.15440871 0.013170904 0.09480397 0.15035814 -0.16990702 -0.034659673 -0.05373926
0.027040003 0.053949866 -0.03539132 -0.0966555 -0.121530056 -0.019667849 -0.06748577 -0.14222923
-0.06815815 -0.15358926 -0.151534 -0.11028171 -0.07713886 -0.13471362 -0.06777785 -0.007667353
-0.09530647 -0.092344545 -0.10619806 -0.15529682 -0.058733255 -0.039961208 -0.09586775 0.0057151066
-0.01300469 -0.11583125 -0.08375866 -0.008517836 0.0061390046 -0.048705183 -0.070399724 0.059007812
0.011132034 -0.034146804 -0.08750418 -0.054796867 0.15219602 -0.038514134 -0.019406307 0.0044775466
-0.018004278 0.11463161 -0.041375943 0.1308727 0.21187358 -0.0015576556 0.12734254 0.06815203
0.117540196 0.03516948 0.06763486 -0.05071677 0.043641817 0.039369855 0.04425381 0.12436724
0.05882314 0.08958999 0.010061631 0.0031333587 0.08524689 0.06681232 0.028643707 -0.0900026
-0.023119895 0.103662185 0.038766053 -0.03140689 0.10081055 0.15813763 0.020537129 0.08275228
-0.008864265 0.095810555 0.09191069 0.1023321 8.682402e-06 0.038042415 0.14348426 -0.0049029295
-0.044714473 -0.03273565 0.053221874 0.11900008 0.066991635 0.13513748 0.1094401 -0.092893265
0.009580611 0.022144565 0.0072942376 0.023302674 -0.10283698 -0.041426625 -0.0053552 -0.08652333
-0.15138668 -0.15717609 -0.020520058 -0.15948433 -0.15941283 -0.03419844 -0.04477671 -0.055498216
-0.1166676 -0.19742699 -0.14052376 -0.040321603 -0.1414037 -0.10723484 -0.10703013 -0.242486
0.018069547 -0.011797848 -0.18498985 -0.10575989 -0.25424823 -0.0705281 -0.067630805 -0.16797404
-0.07382389 -0.052165356 -0.022105413 -0.15621766 -0.012588511 0.09634632 0.117054775 0.12003053
00000000: 0388 f83c b034 b2bc 7115 38bc 3fa7 a6bc
00000010: 338d 41bd c4d8 683d 3f72 313d a5e6 663d
00000020: 121a 403c 4ca9 033c 0212 4c3d fc2f 3ebc
00000030: 8dee 663d d38b 08bd ca2d e2bd 044f 0d3d
00000040: aa30 04be 1fa9 86bd 559b 8ebd 232f 2ebe
00000050: 985c bb3d d21c c5bd 7f4b 313a 3221 1c3e
00000060: 6189 31bd 3834 903c 5cd6 283c ed88 b0bc
00000070: cde2 ac3d 568d 8dbb 119f 783d 2bba da3d
00000080: 31f1 f23d 9376 113d 2fa8 713b 0fe0 823d
00000090: 683c f63d 637a b73d 3fb8 743d 054f b43d
000000a0: b0f1 0f3d 1c19 873d 8a1d 143e 2c31 a23d
000000b0: d90a c43c 8618 39bd 1e5e 9cbd 7586 25bd
000000c0: 8c38 eabd 8e82 aabd 9934 ca3d ad09 86bd
000000d0: 9ac4 86bd 67e8 373e d4ad 013d 3baa 30bd
000000e0: 5449 08bd 4514 61bd 9d2a c73c 4cd5 5ebc
000000f0: 4551 5b3d 1f02 6bbd 7779 103d d1ff 0c3e
00000100: 85d4 223e 25d7 4d3d 044c 0f3d ce3c 263d
00000110: 3b64 2dbd 8089 353e ac44 73bc 8714 363d
00000120: 5b14 15bd 44a8 06be 810f 3b3d 0cd9 c43d
00000130: 5ff9 0f3b 20ca 8a3d dfce d2bd 9484 06be
00000140: f8e2 253d 58cf 0e3d db57 e83b 87a0 e43c
00000150: 2266 b33c 77d9 143e 9e87 143e 96e9 bebc
00000160: 427d 23be cb66 31bd e44d 023e afc3 91bd
00000170: 0276 573d db2d 1b3c 74f7 1cbe 05a9 153c
00000180: 06b5 29be ab5a 2ebe afd9 71be 6883 e3bd
00000190: e1bf ca3d 9296 583c d70e 473d cc7f 8b3d
000001a0: e267 023d 698e 90bd ef24 b5bd 626c 19bd
000001b0: 0b79 53bd c852 bd3d 1c68 0dbe b8c9 183d
000001c0: db9e ac3d 9e25 ad3d 55b1 5cbc 5b79 d63d
000001d0: 61f3 ec3d 0953 7f3d 6c53 d63d 6621 403d
000001e0: e8d1 52bd 511d 1e3e c6ca 573c 9528 c23d
000001f0: 7cf7 193e 1bfc 2dbe 4df7 0dbd b31d 5cbd
00000200: ff82 dd3c 89fa 5c3d 7df6 10bd 52f3 c5bd
00000210: c0e4 f8bd 781e a1bc fb35 8abd 8aa4 11be
00000220: 8096 8bbd 8146 1dbe bb2b 1bbe 61db e1bd
00000230: fbfa 9dbd 5ef2 09be 1dcf 8abd 6b3e fbbb
00000240: 0a30 c3bd 231f bdbd 5e7e d9bd 2106 1fbe
00000250: 4892 70bd 5dae 23bd 5056 c4bd ca45 bb3b
00000260: a011 55bc ef38 edbd a989 abbd 658e 0bbc
00000270: b429 c93b 167f 47bd bb2d 90bd 2db2 713d
00000280: 2263 363c 85dd 0bbd 6435 b3bd ae72 60bd
00000290: 46d9 1b3e ffc0 1dbd faf9 9ebc 62b8 923b
000002a0: b57d 93bc fac3 ea3d d279 29bd 7e03 063e
000002b0: 63f5 583e 402a ccba 1566 023e 4b93 8b3d
000002c0: eab8 f03d df0d 103d 2584 8a3d 63bc 4fbd
000002d0: c3c1 323d 4942 213d 7c43 353d 40b4 fe3d
000002e0: 88f0 703d f57a b73d 8ad9 243c 0959 4d3b
000002f0: ec95 ae3d e6d4 883d 35a6 ea3c 4853 b8bd
00000300: ef65 bdbc d74c d43d 27c9 1e3d 83a4 00bd
00000310: c375 ce3d d5ee 213e 7b3d a83c 077a a93d
00000320: 6c3b 11bc 5338 c43d ac3b bc3d 7e93 d13d
00000330: a2aa 1137 5dd2 1b3d 8aed 123e c1a8 a0bb
00000340: 8626 37bd d115 06bd 2eff 593d 50b6 f33d
00000350: e932 893d 7b61 0a3e 2222 e03d d33e bebd
00000360: fff7 1c3c 8568 b53c 8004 ef3b 40e5 be3c
00000370: 329c d2bd f7ae 29bd ac7a afbb 2533 b1bd
00000380: 1c05 1bbe c5f2 20be ae19 a8bc dc4f 23be
00000390: 1e3d 23be aa13 0cbd c967 37bd 1952 63bd
000003a0: 6cef eebd 4d2a 4abe 76e5 0fbe 4428 25bd
000003b0: 22cc 10be f19d dbbd 9d32 dbbd 404e 78be
000003c0: 9606 943c c34b 41bc fb6d 3dbe a498 d8bd
000003d0: d32c 82be 0971 90bd 0582 8abd 6301 2cbe
000003e0: fb30 97bd 57ab 55bd 6916 b5bc 86f7 1fbe
000003f0: 0b40 4ebc 3851 c53d 6aba ef3d 91d2 f53d

fc1.bias f4 [120]
0.19183952 -0.005662428 0.17450458 0.22176598 -0.044560097 -0.043242496 -0.14892082 0.23719767
0.1333284 -0.010576812 0.31248832 0.05502364 -0.028049732 0.20345168 0.041822262 -0.18028761
-0.002349134 -0.047627512 -0.18723546 0.016604573 -0.110535674 -0.042795517 0.040156014 0.22412206
0.08682639 0.05616389 0.06078301 0.16812815 0.1820258 0.32777664 0.035431117 -0.16770083
0.2882287 0.24493423 0.12662825 -0.1812962 -0.062405597 -0.08455055 0.09299248 -0.020006848
0.09015767 0.062132888 -0.1785947 -0.14897333 0.38176283 -0.060704213 -0.00045357164 -0.16797435
0.19570775 0.12286646 -0.2352721 -0.33892944 0.070309535 0.014155708 -0.120485276 0.11684462
0.046125714 -0.08214893 0.046611264 -0.08887089 -0.08800586 -0.045905072 0.085008755 0.2673197
0.15770958 0.0717328 0.1757159 -0.04643082 -0.033550784 0.24878767 0.2564303 -0.07035354
0.16932364 -0.23863633 0.40991446 -0.048103034 0.12283411 -0.22546029 -0.0030345267 0.0014706188
0.042711034 0.13187791 0.09058731 -0.09477825 -0.12275077 0.094386645 -0.05638306 0.10695276
-0.05569606 0.35584936 0.041514155 0.2957251 -0.12985677 -0.056789164 -0.003715846 0.19579627
-0.3637516 0.17390873 0.08030214 -0.002661323 -0.13412245 -0.12477209 -0.1688007 -0.20016366
-0.10674361 -0.22435005 0.0135045275 0.009179732 0.044276353 -0.0078557655 -0.073056705 0.13522626
0.18854342 -0.09093434 0.1246602 0.019683624 -0.07809435 -0.039766654 0.045601927 -0.23008077
00000000: 9471 443e e48b b9bb 54b1 323e 9f16 633e
00000010: a684 36bd 0b1f 31bd b37e 18be f2e3 723e
00000020: 3d87 083e 5d4a 2dbc 78fe 9f3e 7860 613d
00000030: 8dc8 e5bc a355 503e d24d 2b3d 519d 38be
00000040: eef3 19bb 1115 43bd a7ba 3fbe 5006 883c
00000050: 8760 e2bd 5a4a 2fbd a27a 243d 4180 653e
00000060: 09d2 b13d 1b0c 663d 9bf7 783d c929 2c3e
00000070: f964 3a3e 57d2 a73e 3820 113d c4b9 2bbe
00000080: b692 933e 0ad0 7a3e d6aa 013e b6a5 39be
00000090: 039d 7fbd d728 adbd d772 be3d 67e5 a3bc
000000a0: 96a4 b83d 0e7f 7e3d 87e1 36be 778c 18be
000000b0: 6b76 c33e fba4 78bd 5bcd edb9 7801 2cbe
000000c0: 9d67 483e 69a1 fb3d 2beb 70be 2988 adbe
000000d0: 72fe 8f3d 58ed 673c fcc0 f6bd 3b4c ef3d
000000e0: 51ee 3c3d b33d a8bd 74eb 3e3d f101 b6bd
000000f0: 6b3c b4bd f506 3cbd 1219 ae3d 21de 883e
00000100: 9f7e 213e a5e8 923d deee 333e 3e2e 3ebd
00000110: 8c6c 09bd 32c2 7e3e d54a 833e 8415 90bd
00000120: 2d63 2d3e 155d 74be 4fe0 d13e b007 45bd
00000130: 7390 fb3d 10df 66be e9de 46bb c7c1 c03a
00000140: c4f1 2e3d 010b 073e d785 b93d 191b c2bd
00000150: c164 fbbd c94d c13d ecf1 66bd 0c0a db3d
00000160: 8d21 64bd e331 b63e bf0a 2a3d 4869 973e
00000170: 2cf9 04be c19b 68bd 8d85 73bb d17e 483e
00000180: a63d babe 2115 323e 7375 a43d 9769 2ebb
00000190: 6557 09be 8288 ffbd 17da 2cbe b4f7 4cbe
000001a0: 659c dabd 05bc 65be 1842 5d3c 9666 163c
000001b0: 1f5b 353d 78b5 00bc c19e 95bd c178 0a3e
000001c0: 8711 413e c93b babd d94d ff3d 8d3f a13c
000001d0: eeef 9fbd 5ce2 22bd 16c9 3a3d 4b9a 6bbe

fc2.weight f4 [84, 120]
-0.01649953 0.008549615 -0.07164849 -0.0018003597 -0.08790742 0.029184673 -0.011053925 -0.05774904
-0.0423076 0.037236907 -0.08969526 -0.009345596 0.068160094 0.008277613 -0.018455131 0.0732363
0.05801028 0.05329327 -0.11979848 -0.015835028 -0.009606217 -0.00022174678 0.015753567 0.026666315
-0.048147865 -0.05003925 0.074918 -0.040058877 0.02959308 0.03704144 -0.06634136 -0.05648758
0.047776863 -0.0034715177 -0.07343017 -0.087799184 -0.04567222 -0.06246834 0.065618224 -0.06089325
0.07740687 -0.0007980683 -0.08135832 0.0099637 0.033225313 -0.04948182 -0.083376594 0.09757899
-0.04413409 -0.062770516 -0.053309422 -0.04515187 -0.054695718 -0.07325926 0.010639798 -0.09464606
-0.037649907 0.009778602 -0.028974907 -0.011713569 0.068008974 0.0022436518 -0.025368106 -0.004608865
0.012808247 -0.011294228 -0.032129467 0.01050737 -0.021331094 -0.0135841705 0.012664662 -0.029494997
-0.0017741778 -0.06298167 -0.017465679 0.01653406 0.03383701 0.023849953 -0.03752686 -0.051121153
-0.0067981523 -0.029241148 0.041345146 0.008703942 0.07422387 -0.065579884 -0.062397823 -0.08050375
-0.04954999 -0.07054455 -0.08096712 -0.084944 0.027318247 0.049553104 0.08236701 -0.0052556465
-0.08115556 0.056040213 -0.07147191 0.053285595 -0.06612758 0.018506756 0.030126221 0.03184328
0.109139 0.05093347 0.013469027 -0.0904639 -0.102811776 0.015464903 -0.03994718 -0.052310362
0.0054401406 -0.07382419 -0.01032212 0.041116104 -0.07113504 -0.03101288 -0.07680738 -0.023302685
-0.023133552 0.04075751 0.021903863 -0.13231279 -0.10344095 -0.07426696 -0.1405033 -0.12522149
-0.030604634 0.050442033 -0.039587542 0.114601046 -0.05157363 0.049206402 0.0664541 0.14477065
-0.121353075 0.0794452 -0.23251927 0.18273683 -0.1602256 -0.0044985632 0.060617507 -0.007957434
0.18511964 0.11892083 0.02793349 -0.030144574 -0.11431978 0.07580322 0.13676082 -0.116427265
-0.058885593 -0.07973121 0.0669311 -0.15941502 -0.15455796 -0.13173053 0.009873444 0.011389235
-0.062268503 -0.11980228 -0.10974681 -0.0045735994 -0.058023162 0.13356526 -0.1545429 -0.15011543
0.090695836 0.24590737 -0.25706995 -0.07970078 -0.05026154 -0.11402082 -0.0921627 0.01932709
0.11837271 -0.24853821 -0.23526236 0.0040796627 -0.0832977 0.0069429693 -0.029244905 -0.24857797
0.094689004 -0.04964008 -0.11974328 -0.041219886 -0.079455175 0.17405498 0.0012283853 0.014851076
-0.012429907 -0.020511633 0.14548124 -0.08197334 -0.14974889 0.05123993 0.060683157 0.023212736
0.027255857 0.036000293 0.06330881 0.0074108774 -0.1020429 -0.03292885 -0.08261599 -0.016613696
-0.21949439 0.1449559 -0.112132534 -0.1348694 0.041994914 0.039442252 -0.15246214 0.07827477
-0.14127058 0.12597446 -0.102544226 -0.04587508 0.025531407 -0.014441442 0.08995041 0.08531591
-0.17029648 -0.073399164 -0.17080699 -0.07560581 0.0013541324 0.036915015 -0.05015698 0.027142301
0.11430712 -0.07558746 0.18733743 -0.023885036 0.20148443 0.07747521 -0.088716574 -0.16965821
0.27596197 0.07900964 -0.08644934 -0.16421764 -0.10278916 -0.13650844 -0.015062543 -0.05622833
0.1921987 0.06606614 -0.10299066 -0.049890384 0.04216624 0.059431158 -0.1291187 -0.064746834
00000000: 062a 87bc af13 0c3c 72bc 92bd 0cfa ebba
00000010: ce08 b4bd b214 ef3c 861b 35bc 428a 6cbd
00000020: bc4a 2dbd ba85 183d 26b2 b7bd 451e 19bc
00000030: 8597 8b3d d39e 073c 372f 97bc eafc 953d
00000040: 309c 6d3d 0b4a 5a3d e858 f5bd 76b8 81bc
00000050: 6563 1dbc b384 68b9 a00d 813c 5173 da3c
00000060: b236 45bd f5f5 4cbd 9c6e 993d c714 24bd
00000070: 306d f23c c4b8 173d fbdd 87bd 855f 67bd
00000080: acb1 433d 6782 63bb 8f62 96bd 0fd0 b3bd
00000090: cb12 3bbd cdde 7fbd d962 863d 336b 79bd
000000a0: 7e87 9e3d 7535 51ba 319f a6bd c93e 233c
000000b0: 4417 083d 73ad 4abd 59c1 aabd 7ed7 c73d
000000c0: f3c5 34bd d48d 80bd fb5a 5abd 2bf1 38bd
000000d0: 9e08 60bd f308 96bd 8c52 2e3c cbd5 c1bd
000000e0: ca36 1abd 6e36 203c c95c edbc 45ea 3fbc
000000f0: 4a48 8b3d 3b0a 133b c6d0 cfbc f605 97bb
00000100: aed9 513c 6d0b 39bc 309a 03bd 1b27 2c3c
00000110: 8cbe aebc 2490 5ebc 717f 4f3c 7e9f f1bc
00000120: 878b e8ba 89fc 80bd 2f14 8fbc 7072 873c
00000130: ad98 0a3d fa60 c33c c4b5 19bd 6a64 51bd
00000140: 09c3 debb 228b efbc 8759 293d fb9a 0e3c
00000150: af02 983d bf4e 86bd dc94 7fbd 26df a4bd
00000160: eef4 4abd a979 90bd 17d2 a5bd 1ff7 adbd
00000170: 84ca df3c 32f8 4a3d 09b0 a83d 8f37 acbb
00000180: e334 a6bd 6c8a 653d dd5f 92bd ff41 5a3d
00000190: e66d 87bd 7b9b 973c 44cb f63c 196e 023d
000001a0: 4584 df3d 9d9f 503d 32ad 5c3c 2345 b9bd
000001b0: fb8e d2bd 8160 7d3c a79f 23bd 6443 56bd
000001c0: 3543 b23b 2331 97bd 1c1e 29bc 5c69 283d
000001d0: 3faf 91bd b90e febc 304d 9dbd 46e5 bebc
000001e0: 9382 bdbc 59f1 263d bb6f b33c 017d 07be
000001f0: d9d8 d3bd 4719 98bd 19e0 0fbe 103a 00be
00000200: 92b6 fabc 4e9c 4e3d 8c26 22bd f4b3 ea3d
00000210: df3e 53bd a78c 493d 1619 883d c23e 143e
00000220: f687 f8bd 2ab4 a23d 8819 6ebe 5d1f 3b3e
00000230: 2e12 24be af68 93bb 104a 783d e65f 02bc
00000240: 0190 3d3e c48c f33d c6d4 e43c c1f1 f6bc
00000250: 7d20 eabd b83e 9b3d 070b 0c3e 6b71 eebd
00000260: 0532 71bd 1e4a a3bd 2c13 893d b13d 23be
00000270: 7144 1ebe 5ee4 06be 3ac4 213c ea99 3a3c
00000280: 420d 7fbd e65a f5bd efc2 e0bd 22de 95bb
00000290: b2a9 6dbd 55c5 083e 7e40 1ebe dcb7 19be
000002a0: bdbe b93d 24cf 7b3e ac9e 83be 2a3a a3bd
000002b0: 0bdf 4dbd bf83 e9bd ccbf bcbd d853 9e3c
000002c0: 646d f23d cd80 7ebe 9ee8 70be b1ae 853b
000002d0: fc97 aabd d981 e33b 0393 efbc 398b 7ebe
000002e0: 4fec c13d 6653 4bbd f73b f5bd 2fd6 28bd
000002f0: 65b9 a2bd 783b 323e c501 a13a ed51 733c
00000300: cfa6 4bbc 0308 a8bc 09f9 143e a3e1 a7bd
00000310: c657 19be f6e0 513d e78e 783d a328 be3c
00000320: ad47 df3c 0b75 133d 0da8 813d f2d6 f23b
00000330: defb d0bd 67e0 06bd 9232 a9bd 7219 88bc
00000340: 23c3 60be 526f 143e bea5 e5bd 341b 0abe
00000350: dc02 2c3d 338e 213d 091f 1cbe 864e a03d
00000360: 3ca9 10be 73ff 003e b502 d2bd 82e7 3bbd
00000370: 3e27 d13c cc9b 6cbc ec37 b83d 1cba ae3d
00000380: 3362 2ebe 4d52 96bd 07e8 2ebe 38d7 9abd
00000390: 257d b13a 3334 173d 6871 4dbd 8859 de3c
000003a0: da19 ea3d 99cd 9abd 62d5 3f3e 8daa c3bc
000003b0: ef51 4e3e 53ab 9e3d 09b1 b5bd e2ba 2dbe
000003c0: e34a 8d3e cecf a13d 5a0c b1bd ab28 28be
000003d0: 2083 d2bd dec8 0bbe e2c8 76bc ad4f 66bd
000003e0: bccf 443e af4d 873d c4ec d2bd dc59 4cbd
000003f0: 82b6 2c3d 166e 733d b137 04be fd99 84bd

fc2.bias f4 [84]
-0.033533297 0.42566457 0.09734977 0.11164975 -0.2135637 0.5586366 -0.06702423 0.20136082
0.06732354 0.06667705 0.16259485 0.70621616 -0.01625198 0.07366108 0.6263801 0.06544618
0.4645864 0.33012205 0.67859894 0.4069584 -0.05415407 0.14593077 0.27816764 -0.08870936
0.23414487 0.017354162 0.8682647 0.3608858 0.53193915 -0.09175535 0.16462712 0.39876065
-0.026333647 0.086287156 0.14548382 0.20000577 0.12989658 0.58460766 0.1556126 0.44933113
0.092862405 0.4068867 -0.12496148 -0.011688255 0.3920375 -0.06971311 0.027542941 0.09257018
-0.052073386 0.109356634 0.41575548 0.62299305 -0.03374231 -0.07403789 -0.034192976 0.12670408
0.110116325 0.14086184 0.4912542 -0.037842765 0.6840888 0.25261357 0.2658524 0.43843028
-0.050947707 0.39693245 -0.0182681 0.17004259 0.04123735 0.38040727 0.3672988 -0.10793032
0.25821736 -0.070504375 -0.11979258 0.84451383 -0.09221988 0.50992805 -0.02840296 0.063199505
0.532532 -0.054259818 0.6409951 -0.05492957
00000000: 365a 09bd b5f0 d93e 515f c73d a0a8 e43d
00000010: 71b0 5abe cf02 0f3f 0044 89bd 8831 4e3e
00000020: ede0 893d fa8d 883d 447f 263e 95ca 343f
00000030: df22 85bc 9fdb 963d 725a 203f a608 863d
00000040: 45de ed3e c205 a93e a9b8 2d3f da5c d03e
00000050: a8d0 5dbd e06e 153e fd6b 8e3e 41ad b5bd
00000060: acc3 6f3e 512a 8e3c 9846 5e3f 06c6 b83e
00000070: 2a2d 083f 3bea bbbd 0394 283e 5b2a cc3e
00000080: a9b9 d7bc 52b7 b03d b6f9 143e 50ce 4c3e
00000090: 9c03 053e d9a8 153f e958 1f3e bb0e e63e
000000a0: a52e be3d 7453 d03e ceeb ffbd 1880 3fbc
000000b0: 24b9 c83e bfc5 8ebd bca1 e13c 6f95 bd3d
000000c0: e74a 55bd 5ff6 df3d e7dd d43e 797c 1f3f
000000d0: 6035 0abd 2da1 97bd ef0d 0cbd b7be 013e
000000e0: ab84 e13d 163e 103e ac85 fb3e 0401 1bbd
000000f0: 7220 2f3f 9156 813e ce1d 883e ef79 e03e
00000100: 8bae 50bd bb3a cb3e fca6 95bc a51f 2e3e
00000110: 7fe8 283d bec4 c23e 970e bc3e 920a ddbd
00000120: 1135 843e 9964 90bd d055 f5bd 0f32 583f
00000130: c7dd bcbd a58a 023f 53ad e8bc be6e 813d
00000140: 0454 083f 8b3f 5ebd 4118 243f d4fd 60bd

fc3.weight f4 [10, 84]
0.02701146 0.124838136 -0.03774776 -0.1354917 0.20901044 -0.29510275 -0.14420964 -0.12738782
0.065636866 0.20135744 0.14765371 -0.03630507 -0.07794416 0.20174627 0.27953124 -0.06628938
0.1430195 0.253578 0.011985219 -0.4361463 -0.096926615 -0.14082064 0.110452265 -0.0069317557
0.1890971 0.16520758 -0.36429086 0.042458642 0.28464946 0.29667518 0.09335569 -0.106563725
-0.056608155 -0.10180513 0.17792732 -0.10630561 -0.07993023 -0.3189658 0.12574594 -0.13602963
0.09649223 0.17754246 0.087042876 -0.05100977 0.1285702 -0.1710517 0.091444395 -0.03701374
0.1427037 -0.09743636 -0.10134399 -0.14954828 0.081303805 -0.021340206 0.17294401 -0.0050376942
-0.16686277 0.025284583 -0.26776826 0.18172617 -0.065210655 0.017444655 0.1966315 -0.15343781
0.069939755 -0.23268627 -0.09104865 0.16377693 -0.04027893 -0.21711336 0.24724348 0.26991782
0.22247499 0.08238472 0.053913634 0.03392324 0.11589978 -0.022426931 0.009619191 0.028871868
0.11102706 0.24246988 -0.044620343 0.022165623 -0.027139317 -0.16060257 -0.14920922 0.19957894
0.054542612 -0.08750772 -0.11343618 -0.06703975 0.06533468 0.07649198 0.22677183 -0.21959673
0.30090097 0.22576222 -0.25733548 0.2994049 -0.11673097 -0.13737755 -0.09975063 0.22078364
-0.13710645 -0.07021117 0.2503729 0.06372346 0.21326612 0.20606747 -0.34146875 -0.22021453
0.30370295 -0.044008568 -0.025740437 0.035330467 -0.036501404 -0.11719608 -0.19449945 -0.1449048
0.23369974 -0.09597958 -0.13496335 -0.1602758 0.11649987 -0.30817094 0.22507243 -0.14299658
0.21523474 0.19375986 0.065228894 -0.15964895 0.0062601604 0.22640401 0.1275865 -0.25804713
0.103345215 0.08487059 0.3335773 0.2587659 0.3185501 0.06320213 -0.21021153 -0.019477392
-0.3164831 -0.0051995115 -0.24534334 -0.0051214043 0.1691053 0.11003956 -0.021106888 -0.53584045
-0.0054129316 0.10352253 0.06336667 -0.13986503 0.21023853 -0.14490412 0.04737965 -0.16579004
0.11819607 0.120335475 0.26141188 -0.081323594 -0.34840402 0.07612132 -0.11014327 0.1868056
-0.09378426 0.053251855 0.10027183 0.15287681 0.07056258 0.24468979 0.20593725 0.026009748
-0.26004392 -0.11598679 -0.049373128 -0.029434307 -0.068620585 -0.015563121 0.13468131 -0.020209877
0.1858269 -0.081577085 0.3213099 -0.09601081 0.09006557 0.1316921 -0.1559892 -0.031326722
-0.08949103 -0.13129227 0.2510833 -0.025409738 -0.0383575 0.09136839 -0.16295466 0.14300877
-0.079299994 0.17318705 0.06350935 -0.01488345 -0.10237787 -0.0036119623 0.2550048 -0.06739272
0.17587046 0.21435185 0.046111595 -0.06517858 -0.13456759 0.025328228 -0.15368195 0.21554059
-0.019306362 -0.16059518 -0.11151934 -0.121433705 0.055728614 -0.015506207 0.06504261 0.017123878
0.08412593 0.012685517 0.2863154 0.202023 0.06773846 -0.14985883 0.0057949945 -0.04459574
-0.037593238 0.17382352 0.09844408 0.21203613 -0.011920946 0.16251017 -0.06290544 0.20760418
-0.058819138 0.07861845 0.09696874 0.20000653 0.06998377 -0.07843857 0.06653216 -0.062328897
0.0754114 -0.09639845 0.14596593 -0.030465323 0.060368296 -0.23432373 -0.032964665 -0.06979839
00000000: 2347 dd3c 23ab ff3d 659d 1abd 56be 0abe
00000010: d506 563e b517 97be b1ab 13be f471 02be
00000020: 9f6c 863d a530 4e3e 8932 173e a0b4 14bd
00000030: 30a1 9fbd 9396 4e3e b81e 8f3e bac2 87bd
00000040: b473 123e fad4 813e a75d 443c 914e dfbe
00000050: 7681 c6bd 4933 10be cc34 e23d c823 e3bb
00000060: aca2 413e 2d2c 293e 5584 babe 1de9 2d3d
00000070: 93bd 913e cfe5 973e 4531 bf3d 153e dabd
00000080: f4dd 67bd 357f d0bd 9432 363e c1b6 d9bd
00000090: 76b2 a3bd 7c4f a3be 8bc3 003e 5a4b 0bbe
000000a0: b89d c53d b1cd 353e 8943 b23d 9fef 50bd
000000b0: e8a7 033e 2d28 2fbe 3347 bb3d b89b 17bd
000000c0: eb20 123e b78c c7bd 708d cfbd 2f23 19be
000000d0: 9c82 a63d a8d1 aebc 3c18 313e 3e13 a5bb
000000e0: 13de 2abe 9d21 cf3c ec18 89be 6d16 3a3e
000000f0: 2a8d 85bd 18e8 8e3c c559 493e cd1e 1dbe
00000100: 933c 8f3d 4f45 6ebe b777 babd 24b5 273e
00000110: 85fb 24bd f752 5ebe 652d 7d3e ab32 8a3e
00000120: 7cd0 633e 52b9 a83d 8bd4 5c3d 18f3 0a3d
00000130: dd5c ed3d afb8 b7bc d099 1d3c b284 ec3c
00000140: 2862 e33d 064a 783e d2c3 36bd ae94 b53c
00000150: 4653 debc 0075 24be 4dca 18be 6c5e 4c3e
00000160: 1368 5f3d 3f37 b3bd 3a51 e8bd 234c 89bd
00000170: 30ce 853d d4a7 9c3d e036 683e f7dd 60be
00000180: b10f 9a3e 362e 673e 7ac1 83be 994b 993e
00000190: a610 efbd b3ac 0cbe 0f4a ccbd 1b15 623e
000001a0: a265 0cbe e0ca 8fbd e030 803e 7281 823d
000001b0: 6f62 5a3e 5a03 533e fed4 aebe eb7f 61be
000001c0: f47e 9b3e 5442 34bd 9cdd d2bc aeb6 103d
000001d0: 7f82 15bd 8004 f0bd dd2a 47be ed61 14be
000001e0: fc4e 6f3e f190 c4bd d533 0abe 571f 24be
000001f0: 7c97 ee3d 95c8 9dbe 6379 663e b26d 12be
00000200: 7f66 5c3e fc68 463e ba96 853d 047b 23be
00000210: 0822 cd3b 74d6 673e 09a6 023e c11e 84be
00000220: a8a6 d33d a2d0 ad3d a5ca aa3e f77c 843e
00000230: 0019 a33e 1e70 813d b141 57be 0d8f 9fbc
00000240: 130a a2be aa60 aabb 493b 7bbe 74d1 a7bb
00000250: f129 2d3e 6c5c e13d 5ae8 acbc d72c 09bf
00000260: f65e b1bb 9f03 d43d 62c6 813d c738 0fbe
00000270: c548 573e bf61 14be 2a11 423d ddc4 29be
00000280: c810 f23d 7272 f63d c7d7 853e fc8c a6bd
00000290: 0362 b2be 7fe5 9b3d cb92 e1bd f849 3f3e
000002a0: f611 c0bd 9e1e 5a3d 515b cd3d bd8b 1c3e
000002b0: 1d83 903d f68f 7a3e 37e1 523e 6512 d53c
000002c0: 7a24 85be 7b8a edbd 7a3b 4abd 3720 f1bc
000002d0: f388 8cbd 76fc 7ebc e6e9 093e 2f8f a5bc
000002e0: 6849 3e3e e311 a7bd bb82 a43e 51a1 c4bd
000002f0: 4c74 b83d 4bda 063e a2bb 1fbe 7350 00bd
00000300: 1347 b7bd 7b71 06be fe8d 803e 1528 d0bc
00000310: c11c 1dbd 5a1f bb3d 96dd 26be e470 123e
00000320: 0968 a2bd f257 313e 3111 823d b7d9 73bc
00000330: 7dab d1bd acb6 6cbb fd8f 823e 3205 8abd
00000340: 6317 343e 0d7f 5b3e 83df 3c3d 597c 85bd
00000350: 16cc 09be 257d cf3c cd5e 1dbe acb6 5c3e
00000360: 6028 9ebc 1073 24be 4064 e4bd 3cb2 f8bd
00000370: b043 643d bf0d 7ebc 0f35 853d 6047 8c3c
00000380: 374a ac3d ead6 4f3c ef97 923e 1edf 4e3e
00000390: 76ba 8a3d 9874 19be f0e3 bd3b 06aa 36bd
000003a0: 5efb 19bd cbfe 313e 0d9d c93d 0020 593e
000003b0: 1250 43bc 1169 263e 91d4 80bd 3196 543e
000003c0: 56ec 70bd b602 a13d 8c97 c63d 83ce 4c3e
000003d0: a753 8f3d 67a4 a0bd 0342 883d 964c 7fbd
000003e0: 4b71 9a3d 8d6c c5bd 1878 153e 6a92 f9bc
000003f0: bf44 773d 8ff2 6fbe f505 07bd 75f2 8ebd

fc3.bias f4 [10]
-0.24017368 -0.71761394 -0.30546325 0.636129 0.88645124 0.009239759 0.17552277 -0.34662127
0.3981428 -0.5249889
00000000: 17f0 75be 8cb5 37bf ae65 9cbe 5ad9 223f
00000010: 78ee 623f 5c62 173c 3ebc 333e 5878 b1be
00000020: 60d9 cb3e ac65 06bf
